ReacherModels/actorNetwork.pt (torch, 503540 bytes, 6 tensors)

fc1.weight f4 [400, 10]
0	0xbec4f6c7	-0.38469526
1	0xbeacc024	-0.33740342
2	0xbe4038ad	-0.1877162
3	0x3d75e8ec	0.060036585
4	0xbd1c6ed4	-0.03819163
5	0x3eb2b666	0.34904784
6	0x3d16f007	0.03685
7	0x3e9e3f33	0.30907592
8	0xbcea476f	-0.028598515
9	0xbe6bd96d	-0.2303216
10	0xbe593785	-0.21212585
11	0xbd3865ac	-0.045018837
12	0xbd3ef84e	-0.04662352
13	0xbe9f629e	-0.31129926
14	0xbe040239	-0.12891473
15	0x3dcd0131	0.10009993
16	0xbda507d4	-0.08058134
17	0x3e867d58	0.26267505
18	0x3e531366	0.20612869
19	0x3d46c70e	0.048529677
20	0x3e830506	0.2558977
21	0x3e4a42dd	0.19752069
22	0xbdbd481a	-0.09242268
23	0xbeab6c82	-0.33481222
24	0xbcc17cdf	-0.023619113
25	0x3daef3b4	0.085425764
26	0x3e1110a9	0.14166512
27	0x3e5ecbfa	0.21757498
28	0x3e976534	0.295694
29	0x3df673eb	0.12033828
30	0xbe39d3f4	-0.1814726
31	0xbea7fd27	-0.32810327
32	0xbe8858c8	-0.26630235
33	0xbe2b31a1	-0.1671815
34	0xbdf1283b	-0.117752515
35	0x3e334272	0.17505816
36	0xbdc0d709	-0.09416015
37	0xbe932c64	-0.28744805
38	0x3e52c9fe	0.20584866
39	0xbeedb915	-0.4643027
40	0x3e8371a7	0.25672647
41	0x3dbdfd69	0.0927685
42	0x3e2bd164	0.16779095
43	0x3e509b8a	0.20371833
44	0xbcd174f5	-0.025568465
45	0x3e0cd2b3	0.1375225
46	0x3d32b5e9	0.043630514
47	0x3d53e79e	0.05173456
48	0x3ebf1fe7	0.37329027
49	0x3e57841b	0.21046488
50	0xbdee989b	-0.11650201
51	0xbc0bfc94	-0.008544106
52	0xbddb01bb	-0.106936894
53	0xbe62489f	-0.22098015
54	0x3e984994	0.29743636
55	0xbeec55a9	-0.46159104
56	0xbe24f057	-0.16107307
57	0x3e65de52	0.2244809
58	0x3ec9d238	0.39418197
59	0x3ecfb51f	0.40567872
60	0x3c9e298e	0.019306924
61	0x3cd67f85	0.026183853
62	0xbd098186	-0.03357079
63	0x3ea4bfa1	0.3217745
64	0x3e12866c	0.1430909
65	0x3d140e5d	0.03614651
66	0x3d8ca07c	0.068665475
67	0x3ea279be	0.31733507
68	0xbe2454ca	-0.1604797
69	0xbd9bd353	-0.07608666
70	0xbdecebb6	-0.11568396
71	0xbe4a42cf	-0.19752048
72	0x3e2b88ba	0.16751376
73	0x3e13a07b	0.14416687
74	0x3e1dd9a9	0.15415062
75	0xbd7d4ae2	-0.061838992
76	0x3e7c7372	0.24653414
77	0xbd8e5f43	-0.069517635
78	0x3daae8e0	0.08345199
79	0xbe4b1ba8	-0.19834769
80	0xbe5d06e7	-0.21584664
81	0xbea42be4	-0.32064736
82	0x3d9bc8a4	0.076066285
83	0xbed5dd27	-0.41770288
84	0x3e654e09	0.2239305
85	0x3e8786ed	0.26470128
86	0xbe46cbd7	-0.19413696
87	0x3e31d974	0.17368108
88	0xbe5a9a05	-0.21347816
89	0x3dc55fa4	0.096373826
90	0x3d4c737c	0.049914822
91	0x3e397bc6	0.18113622
92	0xbeac449e	-0.336461
93	0x3e3db143	0.18524651
94	0x3eaa9563	0.33317098
95	0xbb7118e1	-0.003678851
96	0xbe6c3728	-0.23067915
97	0xbcf871a6	-0.03032763
98	0xbe748838	-0.23880088
99	0xbefe8db8	-0.49717498
100	0x3e0e746d	0.139116
101	0x3d36655d	0.04453026
102	0x3e5174c6	0.20454702
103	0x3d9367e5	0.07197551
104	0x3d4c1d6a	0.04983274
105	0xbe4998c3	-0.1968718
106	0x3e04255c	0.12904876
107	0x3de53cdc	0.11193249
108	0x3e2d0b85	0.16898926
109	0x3e86cf2f	0.26329944
110	0xbe660fae	-0.22466919
111	0x3de217bf	0.110396855
112	0xbe0a42a8	-0.1350199
113	0x3da3bdaf	0.07995164
114	0xbe617f4d	-0.22021218
115	0xbe8ef455	-0.27920786
116	0xbe130f56	-0.14361319
117	0x3e854c3d	0.26034728
118	0xbe80959c	-0.25114143
119	0x3e84761c	0.2587136
120	0xbd9214eb	-0.07132896
121	0xbe430abb	-0.19047062
122	0xbd7e3c62	-0.062069304
123	0xbd6d92c5	-0.0580013
124	0x3e859754	0.26092017
125	0x3e937d6d	0.2880663
126	0x3e959301	0.29213718
127	0x3d57a15b	0.052644115
128	0xbee53415	-0.44766298
129	0xbe6fb6de	-0.23409602
130	0x3e626547	0.22108947
131	0xbe7b30bd	-0.24530311
132	0xbe632072	-0.22180346
133	0xbde525eb	-0.11188873
134	0xbea4c930	-0.32184744
135	0x3ed4dad1	0.41573194
136	0x3d8cbcd1	0.06871951
137	0xbe0b5a40	-0.13608646
138	0x3e9a18f5	0.30097166
139	0x3c596309	0.013268241
140	0x3e6e4141	0.2326708
141	0x3e6be9a9	0.23038353
142	0xbe6c7d25	-0.23094614
143	0xbe044fda	-0.12921086
144	0xbee09b07	-0.43868276
145	0xbdf2a8eb	-0.11848625
146	0xbe2a16dc	-0.16610283
147	0x3e7776a7	0.24166356
148	0x3edffa23	0.43745527
149	0x3e4ef54d	0.20210762
150	0x3d473a4e	0.048639588
151	0x3e6a4c13	0.22880583
152	0xbe097c9a	-0.13426438
153	0x3cbb6a36	0.022877794
154	0xbdf67472	-0.12033929
155	0x3eb8d4b6	0.36099786
156	0x3dd719aa	0.10502942
157	0xbe3e2ef6	-0.18572602
158	0xbd130233	-0.03589077
159	0xbe43f322	-0.19135717
160	0xbe8928c8	-0.26788926
161	0x3d77325c	0.06035076
162	0x3e55c062	0.2087417
163	0x3cb8a137	0.02253781
164	0xbd699968	-0.057031065
165	0x3d9dddee	0.07708345
166	0xbe86d91f	-0.26337525
167	0x3e23a009	0.15979017
168	0x3ea122b7	0.31471798
169	0xbeb674b8	-0.35635924
170	0xbe1f3f34	-0.15551454
171	0x3afa24ef	0.0019084493
172	0xbe99e642	-0.30058485
173	0x3e499350	0.19685102
174	0x3e0c80a0	0.13720942
175	0x3ef3fa14	0.47651732
176	0xbea25c96	-0.31711262
177	0xbe8f19ff	-0.2794952
178	0xbde05df4	-0.1095542
179	0xbe982bc4	-0.2972089
180	0x3dcc9dbb	0.09991022
181	0x3d965805	0.07341007
182	0x3da2820f	0.07934963
183	0x3d9fd2f3	0.07803907
184	0x3db0985e	0.08622812
185	0x3e7a46f3	0.24441127
186	0xbe75d2c6	-0.24006185
187	0x3e955d29	0.29172638
188	0xbe4f2a1c	-0.20230907
189	0xbe1ee4c2	-0.15516952
190	0xbeb16481	-0.3464699
191	0x3dfd0f4e	0.12356435
192	0xbea14887	-0.31500646
193	0xbea565b8	-0.32304168
194	0x3e009d00	0.12559891
195	0xbe293c7d	-0.1652698
196	0x3e53abf6	0.20671067
197	0x3e2b5c4a	0.16734424
198	0xbeaaf1b9	-0.33387545
199	0xbce9ce9c	-0.028540902
200	0xbe7c5424	-0.24641472
201	0x3ed9432b	0.42434058
202	0x3c26b087	0.010173923
203	0xbe03436a	-0.12818685
204	0x3ec1c6d0	0.37846994
205	0x3e906f0f	0.2820973
206	0xbdf958c8	-0.12175137
207	0xbd25a8e4	-0.04044427
208	0xbc9bfcd4	-0.019041456
209	0xbeb594b0	-0.35465002
210	0x3ec04de5	0.3755943
211	0xbe0d8ed3	-0.13824014
212	0xbeb73c4a	-0.35788184
213	0x3d0046fa	0.03131769
214	0x3e99f0fc	0.3006667
215	0xbe93806f	-0.28808925
216	0xbe4b061a	-0.19826546
217	0x3dd1b686	0.10239892
218	0xbdedcbe3	-0.11611154
219	0x3e8eb9e1	0.2787619
220	0x3d6ee056	0.058319412
221	0x3e0b7e78	0.13622463
222	0xbe8da51d	-0.27665034
223	0xbda127de	-0.07868932
224	0xbe96c557	-0.29447433
225	0x3ed8a1d9	0.4231098
226	0xbc28c756	-0.010301432
227	0x3c32909c	0.010898735
228	0x3e48dd39	0.1961564
229	0xbb78590f	-0.003789488
230	0x3e3ab1d1	0.18231894
231	0xbd499f1e	-0.04922401
232	0xbe67aeea	-0.22625318
233	0xbea3a1d0	-0.3195939
234	0xbd489bbc	-0.048976645
235	0x3ec9f268	0.39442754
236	0xbe7ef048	-0.24896348
237	0x3da617e4	0.081100255
238	0xbda650ac	-0.08120856
239	0xbf100675	-0.5625985
240	0xbe8f5a7b	-0.2799872
241	0xbe211888	-0.15732014
242	0x3c74f7c5	0.014951651
243	0xbe84b64d	-0.25920334
244	0x3e780f7d	0.24224658
245	0x3e8151f6	0.25257844
246	0xbc3460d1	-0.011009411
247	0x3e0efa14	0.13962585
248	0xbcf241c5	-0.029572377
249	0xbee949da	-0.45564157
250	0xbe4b4590	-0.19850755
251	0x3c3750e9	0.011188724
252	0xbc855b68	-0.016278937
253	0xbed97161	-0.42469314
254	0xbe0cbe4a	-0.13744465
255	0x3e3c9b73	0.18418674

fc1.bias f4 [400]
0	0xbd1b7781	-0.037955765
1	0x3e10bcb0	0.14134479
2	0xbe2d4eb5	-0.16924556
3	0xbe2caf78	-0.16863811
4	0x3e9e01f6	0.3086087
5	0x3e164e23	0.14678244
6	0x3d01e008	0.031707793
7	0x3dfd0697	0.123547725
8	0xbc961d6f	-0.018324582
9	0x3e1fb53b	0.15596478
10	0x3e8e49a6	0.27790564
11	0x3eb196a2	0.34685236
12	0x3d5da8c4	0.054116026
13	0xbe0c5a16	-0.1370624
14	0x3dd89c4d	0.10576687
15	0x3e0df13a	0.13861552
16	0x3e9efec1	0.31053737
17	0x3e402b8f	0.18766616
18	0x3ea12f3d	0.31481352
19	0x3be7a5f6	0.0070693446
20	0xbe99dca2	-0.30051142
21	0xbe5ada83	-0.21372418
22	0x3e691867	0.22763215
23	0x3da826b1	0.08210505
24	0x3eb0f4f9	0.345619
25	0xbabc22fe	-0.001435369
26	0xbe1d66a3	-0.15371184
27	0xbd232d0e	-0.03983789
28	0x3d2a9f72	0.041655965
29	0x3e922e65	0.2855102
30	0xbd644ae5	-0.055735487
31	0xbcdedc3c	-0.027204625
32	0xbde2cc0b	-0.11074074
33	0xbe13a689	-0.14418997
34	0xbd0c5462	-0.03426016
35	0xbe4c368a	-0.1994268
36	0x3e9b228c	0.30299795
37	0xbe2c8b50	-0.16850019
38	0xbd7376d4	-0.059439495
39	0xbe7fb24e	-0.24970362
40	0x3cd79252	0.026314888
41	0xbab6c018	-0.0013942746
42	0x3e165b8f	0.14683364
43	0xbeab81da	-0.33497506
44	0xbdf6b1e4	-0.12045649
45	0xbd7ec6ba	-0.06220124
46	0x3e25f01a	0.16204873
47	0x3d4d3d5b	0.05010734
48	0x3e9a52d7	0.30141327
49	0x3e41642d	0.1888587
50	0xbcbff403	-0.023431784
51	0x3dd1b3a2	0.1023934
52	0x3d029ec4	0.031889692
53	0x3e99c84d	0.3003563
54	0x3e8fb3ef	0.28066966
55	0x3d019e5b	0.03164516
56	0xbd256c83	-0.040386688
57	0x3dd6ce97	0.10488623
58	0xbbbb78ee	-0.005721203
59	0x3c2eafc3	0.010662022
60	0x3dc7d440	0.0975728
61	0xbe0dd658	-0.13851297
62	0x3de0eeb4	0.10983029
63	0xbe1c231f	-0.15247773
64	0xbe047c12	-0.12937954
65	0x3c895503	0.01676417
66	0xbe20d7bf	-0.157073
67	0x3e32cdf6	0.1746138
68	0x3e8b0b71	0.27157167
69	0x3e2277b1	0.15865971
70	0xbe4a077c	-0.19729418
71	0x3e52ebdc	0.20597786
72	0x3dc30e4f	0.095242135
73	0x3ea3d962	0.32001787
74	0x3ebc35c0	0.36759758
75	0x3e485b24	0.19566017
76	0xbe22d61f	-0.15901993
77	0xbe10618d	-0.14099713
78	0x3d13ac58	0.03605303
79	0xbe4a1d30	-0.19737697
80	0x3d980622	0.07423045
81	0x3e4b0e08	0.19829571
82	0x3e5cb7df	0.21554516
83	0x3d8f3717	0.069929294
84	0x3ea98ec6	0.3311674
85	0x3e4eb9af	0.2018802
86	0xbeade42c	-0.33963144
87	0xbd5520fd	-0.052033413
88	0x3da12291	0.07867921
89	0x3cc55370	0.024087638
90	0xbd8f7b24	-0.07005909
91	0xbd94ec27	-0.07271605
92	0x3ea0b4de	0.3138799
93	0xbd89efa4	-0.06735161
94	0xbe4f0e1c	-0.20220226
95	0x3e6fd193	0.2341979
96	0xbe73e1d7	-0.2381662
97	0x3e865658	0.2623775
98	0xbe637816	-0.22213778
99	0xbaf1cccd	-0.0018447876
100	0x3e59e5cc	0.21279067
101	0xbddbddb5	-0.10735647
102	0x3e653f3d	0.22387405
103	0x3e8f5d03	0.2800065
104	0xbc47e85f	-0.012201398
105	0x3c0697a0	0.008214861
106	0xbd0bcde0	-0.034131885
107	0xbcaab857	-0.020839853
108	0x3e2d0bee	0.16899082
109	0x3e15028c	0.14551753
110	0x3de35ebd	0.11102054
111	0x3e4433fc	0.19160455
112	0x3e67f7e8	0.22653162
113	0xbe25d006	-0.16192636
114	0xbe1e9370	-0.1548593
115	0x3e8b02ac	0.27150476
116	0x3e54e1cb	0.20789258
117	0x3cc3baeb	0.02389284
118	0xbe9679ed	-0.29389897
119	0xbe1633ce	-0.146682
120	0x3dc064f4	0.09394255
121	0x3dbbfdf6	0.091792986
122	0xbe1f9bf0	-0.15586829
123	0xbd81ae44	-0.06332067
124	0x3e9871b9	0.29774264
125	0x3e6c1242	0.2305384
126	0xbe29c69a	-0.16579667
127	0x3de5c640	0.11219454
128	0x3e36ef56	0.17864737
129	0xbe95b144	-0.29236805
130	0x3e4ec98e	0.20194075
131	0xbe033e67	-0.12816773
132	0xbe6daf70	-0.23211455
133	0x3eb0caaa	0.3452962
134	0xbd6cde28	-0.057829052
135	0xbc6779df	-0.014128177
136	0x3e13ba39	0.14426507
137	0x3e779151	0.24176528
138	0xbe80784e	-0.25091785
139	0x3e691ce5	0.22764929
140	0xbba11daf	-0.0049168686
141	0xbd3bc829	-0.045845184
142	0xbc8989b7	-0.0167893
143	0x3e7b9030	0.24566722
144	0x3dea25d9	0.11433
145	0x3d7dd8eb	0.061974447
146	0x3ebcce6f	0.36876246
147	0x3de2fd94	0.110835224
148	0x3be2bab4	0.0069192294
149	0x3d890957	0.066912346
150	0xbe74f4ce	-0.2392151
151	0x3df02428	0.11725646
152	0x3e37c9af	0.1794803
153	0x3cb6fee4	0.022338338
154	0x3e37a56c	0.17934197
155	0x3c8ac373	0.0169389
156	0x3d9cd1ee	0.076572284
157	0xbd1a49ed	-0.037668157
158	0xbe715fa7	-0.23571645
159	0xbe470c35	-0.1943825
160	0x3d472b6c	0.048625395
161	0x3e079059	0.13238658
162	0xbe9a5175	-0.30140272
163	0xbe9a32c0	-0.30116844
164	0xbe79022f	-0.24317239
165	0x3d87af7a	0.066252664
166	0x3db5eef8	0.0888347
167	0x3e4f98c3	0.20273118
168	0x3e1b5fa7	0.15173207
169	0xbdcc0a5f	-0.09962916
170	0x3e802a1b	0.25032124
171	0xbae32e5e	-0.0017332544
172	0xbe5567f2	-0.20840433
173	0xbe9d91a4	-0.30775177
174	0x3d9dd69c	0.07706949
175	0xbe87d53e	-0.26529878
176	0xbc64a907	-0.013956315
177	0x3e55d422	0.20881703
178	0xbe84de33	-0.25950775
179	0x3d876990	0.06611931
180	0xbe8ee605	-0.27909866
181	0xbc432066	-0.01190958
182	0xbe723195	-0.23651727
183	0x3d7e0b59	0.06202254
184	0xbdf6bf11	-0.12048162
185	0xbe104c86	-0.14091691
186	0xbe44e0b7	-0.19226347
187	0x3e954956	0.29157513
188	0x3d87718e	0.06613456
189	0x3e4da0d9	0.2008089
190	0x3d23f1c6	0.040025495
191	0xbe6c0313	-0.23048048
192	0xbe360a8d	-0.17777462
193	0xbe181c1f	-0.14854477
194	0xbe5b29ab	-0.21402614
195	0xbda4410f	-0.080202214
196	0xbe3cf8e3	-0.18454318
197	0xbe97c627	-0.29643366
198	0x3e4d863e	0.2007074
199	0x3e53ea3d	0.20694824
200	0x3de3f99b	0.11131593
201	0xbe3c12c4	-0.18366534
202	0xbe3b2d54	-0.1827901
203	0x3e4e2ae4	0.20133549
204	0x3e96895c	0.29401672
205	0xbc0b6ced	-0.008509857
206	0xbe420c5b	-0.18950026
207	0x3c1cda57	0.009573541
208	0x3e05f90f	0.1308329
209	0x3e0dc3a9	0.1384417
210	0x3c59386d	0.013258082
211	0x3e51e2bd	0.2049665
212	0xbe9284e3	-0.2861701
213	0xbe99de17	-0.30052254
214	0x3eac272e	0.33623642
215	0x3e95b456	0.29239148
216	0xbdd4bd75	-0.103876986
217	0x3db682ad	0.08911643
218	0xbdb313c4	-0.08744004
219	0x3eb12901	0.34601596
220	0x3e1163db	0.14198248
221	0x3e9c7981	0.3056145
222	0xbe8b505c	-0.27209747
223	0x3c71b109	0.014751681
224	0x3eabaded	0.33531132
225	0xbce866d3	-0.028369343
226	0xbe53b201	-0.20673372
227	0x3cc9926b	0.02460595
228	0x3da8c4a2	0.0824063
229	0xbdf63a4f	-0.1202284
230	0xbe07a69f	-0.13247155
231	0x3e686820	0.2269597
232	0x3d106409	0.03525165
233	0xbe34f589	-0.17671789
234	0x3ddc982d	0.10771213
235	0xbe6394be	-0.2222471
236	0x3ea175c6	0.31535167
237	0x3e4c40f2	0.1994665
238	0x3e8ad90b	0.27118716
239	0xbe75d19d	-0.24005742
240	0xbe2fcffa	-0.1716918
241	0xbe1d1381	-0.15339471
242	0x3e728243	0.23682503
243	0x3dd045a7	0.10169535
244	0xbe5a8c79	-0.21342649
245	0x3e0b8fd6	0.13629088
246	0xbe6b6b04	-0.22990042
247	0xbe7d9dc2	-0.24767211
248	0x3e38ebd3	0.1805871
249	0x3dd419d5	0.103564896
250	0x3e302dc8	0.17204964
251	0x3e03b39d	0.12861486
252	0x3b6c60af	0.003606837
253	0x3e1473da	0.14497319
254	0xbbd451e9	-0.006479491
255	0x3e877f3a	0.26464254

fc2.weight f4 [300, 400]
0	0xbd4b5afc	-0.049647316
1	0xbc061a72	-0.008185016
2	0x3daa6baf	0.0832132
3	0xbc520940	-0.012819588
4	0x3cbb5ebe	0.022872325
5	0x3ba068cf	0.0048953067
6	0x3c878c62	0.016546432
7	0xbcceeb31	-0.025258632
8	0xbd0d7183	-0.03453208
9	0x3d535dca	0.051603116
10	0x3d6e3090	0.05815178
11	0x3be3a0a0	0.006946638
12	0x3cbbbb35	0.022916416
13	0x3d1440b4	0.03619452
14	0xbc748942	-0.014925303
15	0x3d31e2ac	0.04342906
16	0x3d7a9352	0.06117565
17	0x3cacb855	0.02108399
18	0xbd04a33a	-0.032382227
19	0x3c0c050a	0.008546123
20	0x3d85d20b	0.06534203
21	0xbd2ff2c7	-0.04295614
22	0x3d744237	0.05963346
23	0xbc195fc0	-0.0093612075
24	0xbd3d1012	-0.046157904
25	0xbbe33955	-0.0069343247
26	0xbd24bd29	-0.04021946
27	0xbd308d84	-0.04310371
28	0x3d45b660	0.04826963
29	0x3d468853	0.048469853
30	0x3d258218	0.04040727
31	0x3d1a8695	0.037726004
32	0xbc29ecc2	-0.010371389
33	0x3cce6254	0.02519337
34	0xb8ad55e4	-8.265281e-05
35	0xbdb59dc5	-0.08867983
36	0xbd72b001	-0.05924988
37	0xbd5e7222	-0.054308064
38	0x3b8cfa17	0.004302274
39	0xbb205953	-0.0024467304
40	0x3c6ad9ed	0.014334184
41	0x3cc398d8	0.023876593
42	0x399cbb22	0.00029894063
43	0x3c6c99d9	0.014440977
44	0xbc6dd9c2	-0.01451725
45	0x3d8125d5	0.06306044
46	0xbb96aedb	-0.004598481
47	0xbc0da74c	-0.008645844
48	0xbc4dca82	-0.012560489
49	0x3b1057de	0.002202503
50	0x3d1c94e5	0.038227934
51	0x3c5baaa2	0.013407381
52	0xbc9127b7	-0.017719133
53	0xbb6fd16e	-0.0036593336
54	0x3d55e1de	0.052217357
55	0x3da39600	0.079875946
56	0xbcaf868b	-0.02142646
57	0xbbdd4fb8	-0.006753888
58	0xbbb4372a	-0.00549974
59	0xbbc5a471	-0.006031566
60	0xbbab49d9	-0.005227309
61	0x3c854a43	0.016270762
62	0x3c87b472	0.016565535
63	0x3c9c8c02	0.01910973
64	0x3c4de1a7	0.012566007
65	0x3d8e18c2	0.06938316
66	0xba85f70b	-0.0010220719
67	0xba21ebc4	-0.00061767944
68	0xbbdb2b8e	-0.0066885417
69	0x3d6001cf	0.054689225
70	0xbcccf475	-0.02501891
71	0xbbae576d	-0.0053204806
72	0xbd72c43f	-0.059269186
73	0x3d113ee4	0.035460368
74	0x3945526e	0.00018818091
75	0x3c9ede4a	0.019393105
76	0x3d6159df	0.05501735
77	0x3d037cad	0.032101322
78	0xbd2735d1	-0.040822808
79	0x3bdb36d9	0.006689888
80	0xbcbf58fb	-0.023357859
81	0x3d524737	0.051337447
82	0xbcfb444d	-0.030672217
83	0x3d906124	0.07049778
84	0xbcc7f642	-0.024409417
85	0xbc5350cd	-0.012897682
86	0xbd651442	-0.055927522
87	0xbc99d134	-0.018776514
88	0xbd595ab1	-0.053065006
89	0x3d3dcea4	0.046339646
90	0xbd944a46	-0.07240729
91	0x3c0bf185	0.008541469
92	0x3d485836	0.04891225
93	0x3cb51572	0.022104952
94	0xbd61d22a	-0.05513207
95	0xbca19553	-0.019724524
96	0xbd33dcdf	-0.04391181
97	0x3d964798	0.07337874
98	0xbd67ef2b	-0.056624573
99	0xbc3b95f2	-0.011449324
100	0xbc2643a1	-0.01014796
101	0xbb6238a9	-0.0034518635
102	0x3d910d0d	0.07082567
103	0xbcda54ff	-0.026651857
104	0xbce08202	-0.027405743
105	0x3cabe678	0.02098392
106	0x3c85751d	0.016291196
107	0xbc628ede	-0.0138280075
108	0x3ca6afe7	0.020347549
109	0xbd0f078a	-0.0349193
110	0x3c174611	0.009233014
111	0xbcb8e594	-0.022570409
112	0x3bc16cc1	0.005902857
113	0xbd8db1af	-0.06918656
114	0x3d844d6f	0.06460082
115	0x3a43c3c7	0.0007467833
116	0x3d018fc9	0.031631265
117	0x3cfa963e	0.03058922
118	0xbd242cf0	-0.04008192
119	0xbc37c205	-0.011215691
120	0xbd10a67c	-0.035315022
121	0x3ce4b44c	0.027918003
122	0xbd2ad8a2	-0.041710503
123	0x3c84834d	0.01617589
124	0xbca512fc	-0.020150654
125	0x3c0280fb	0.007965322
126	0xbd8be293	-0.06830325
127	0x3ca5190b	0.020153543
128	0x3d423c4d	0.04742079
129	0x3dc2f8ae	0.09520088
130	0xbd677ee9	-0.056517515
131	0xbc81da5e	-0.015851196
132	0xbd6de468	-0.058079153
133	0x3bb2cc88	0.005456511
134	0xbd8013fa	-0.0625381
135	0x3dad1b15	0.08452431
136	0xbce8eb5e	-0.028432544
137	0x3c6d9b48	0.014502354
138	0x3cbf3586	0.023340952
139	0x3d610280	0.054934025
140	0xbd030ef4	-0.031996682
141	0xbd4f4420	-0.05060208
142	0xbd0d4ec0	-0.03449893
143	0x3da09beb	0.07842239
144	0x3c12d39c	0.008961584
145	0xbb6074af	-0.0034249236
146	0xbd1f0b0b	-0.03882889
147	0xbb4d7ea9	-0.0031356013
148	0xbd073c16	-0.033016287
149	0x3c8ff1f6	0.01757143
150	0x3d7fc6df	0.062445518
151	0xbd015304	-0.03157331
152	0xbd7bd21a	-0.061479665
153	0x3c6be063	0.01439676
154	0x3d85d55b	0.06534835
155	0x3da48a0a	0.08034141
156	0x3bf35c19	0.0074267504
157	0x3ce3307e	0.027733084
158	0xbbf49c05	-0.007464888
159	0xbd0e9e4a	-0.034818925
160	0x3ba2264c	0.004948413
161	0x3cb4a965	0.02205343
162	0xbcdff19e	-0.027336892
163	0xbcb13761	-0.021632852
164	0xbd29e84e	-0.04148131
165	0xbc5c8ec4	-0.013461772
166	0xbceb0df6	-0.02869318
167	0xbc2eb3fe	-0.010663031
168	0x3ce7295b	0.028217962
169	0x3cc6de87	0.024276031
170	0xbbe054e9	-0.0068460596
171	0xbb9dfbab	-0.004821261
172	0x3b93b999	0.004508209
173	0xbd96d581	-0.073649414
174	0x3c96e53f	0.01841986
175	0x3c867c98	0.016416833
176	0xbcb113b9	-0.02161585
177	0x3d7abf8c	0.06121783
178	0x3d3280c8	0.043579847
179	0x3cdb9dae	0.026808586
180	0x3cc3a5b7	0.02388273
181	0x3d0aab7b	0.033854943
182	0xbd27f889	-0.041008506
183	0x3adfb62f	0.0017067845
184	0x3c3da354	0.011574585
185	0xbcc5bc9e	-0.024137791
186	0xbd814d5d	-0.06313584
187	0x3cb2e938	0.021839723
188	0xbcb82e9a	-0.022483159
189	0x3d366c08	0.04453662
190	0xbcf16dfb	-0.029471388
191	0xbd43a8b5	-0.047768313
192	0xbd2f915f	-0.042863246
193	0x3d1dab6d	0.038493562
194	0x3c297cd9	0.010344707
195	0x3ca48fc0	0.020088077
196	0xbc955cda	-0.018232752
197	0x3d17f157	0.037095394
198	0x3d31e07e	0.043426983
199	0x3cf4c716	0.029880088
200	0xbc442e82	-0.011973979
201	0xbd54b142	-0.05192686
202	0x3dc92cf8	0.0982303
203	0x3d37bc80	0.044857502
204	0xbd03357c	-0.03203343
205	0x3cfde4d5	0.030992905
206	0x3c8b65d8	0.017016336
207	0x3d850606	0.064952895
208	0x3d80421f	0.062626116
209	0xbcc2ecc5	-0.023794541
210	0x3d63d8cd	0.05562668
211	0xbc8f75aa	-0.017512161
212	0xbb2ea2fb	-0.0026647437
213	0x3d834a0e	0.06410609
214	0xbd45475b	-0.048163753
215	0x3cf6b792	0.03011683
216	0xbb1b90fb	-0.0023737538
217	0xbcb10317	-0.021607919
218	0xbd9ae4e8	-0.07563192
219	0x3da3701c	0.079803675
220	0x3d759e21	0.059965257
221	0x3d4495aa	0.047994293
222	0x3d7b0b2b	0.061289947
223	0xbcf068cd	-0.029346848
224	0x3db546fd	0.088514306
225	0x3c3dc6da	0.011583054
226	0x3d672d5b	0.05643974
227	0xbcc0a31d	-0.023515278
228	0x3d8872c8	0.06662518
229	0xbd38ffe9	-0.04516593
230	0x3d02cb09	0.03193191
231	0xbc24b2c8	-0.01005239
232	0xbd43d044	-0.04780604
233	0x3d006722	0.031348355
234	0x3d258588	0.04041055
235	0xbd41ab6f	-0.047282632
236	0x3d0726e3	0.03299607
237	0x3ca61cd3	0.020277416
238	0xbce308a4	-0.027714081
239	0x3ccada4b	0.024762293
240	0x3cc7e5a0	0.024401486
241	0x3d07da08	0.033166915
242	0x3c16b6c2	0.009198846
243	0x3bfa4c33	0.007638478
244	0x3c22ad77	0.009929053
245	0x3d6dda2b	0.05806939
246	0xbd58993b	-0.052880507
247	0xbb1703ce	-0.002304304
248	0x3c956c25	0.018240044
249	0x3a428f74	0.0007421889
250	0xbcb4afda	-0.022056509
251	0x3c30e8a5	0.010797654
252	0xbbcf0649	-0.006317888
253	0xbd18c72e	-0.037299328
254	0x3cbc7ffb	0.023010245
255	0x3cc26feb	0.023735007

fc2.bias f4 [300]
0	0x3c81f6b5	0.01586471
1	0x3c852016	0.016250651
2	0x3ccddc2a	0.025129396
3	0xbc2cac46	-0.01053912
4	0x3d4631ad	0.04838722
5	0x3d2c24bc	0.04202722
6	0xbd0a3220	-0.03373921
7	0xbc036437	-0.008019499
8	0x3d3c1a51	0.045923535
9	0x3cfdca1e	0.030980166
10	0x3cd1d28e	0.025613096
11	0x3c0c1061	0.008548827
12	0x3d1b99e3	0.037988555
13	0xbd2717bf	-0.04079413
14	0x3d74fdcb	0.05981235
15	0x3d331284	0.04371883
16	0x3d373679	0.044729684
17	0x3d003345	0.031298894
18	0x3b196c93	0.0023410663
19	0xbd0393f9	-0.03212354
20	0x3ac84287	0.0015278616
21	0xbb5e70a5	-0.0033941653
22	0x3d726cf6	0.059185944
23	0xbd609017	-0.054824915
24	0x3c131f81	0.008979679
25	0xbd17b79a	-0.03704033
26	0xbd08cf8a	-0.03340105
27	0x3b44d5d5	0.003003468
28	0x3cb1bbc3	0.021695977
29	0x3d398158	0.045289367
30	0xbbedd2ac	-0.00725778
31	0x3c7e0b8f	0.0155056855
32	0x3d59abd8	0.0531424
33	0x3cfdb16b	0.030968389
34	0xbd170311	-0.03686816
35	0xbcf041f7	-0.02932833
36	0xbcc78efe	-0.024360176
37	0xbb8fdcd5	-0.004390339
38	0x3cf4c54e	0.029879238
39	0xbbff37b4	-0.0077886228
40	0x3bea109c	0.0071430933
41	0x3d3452ab	0.04402415
42	0xbc2d907d	-0.010593531
43	0x3d13e352	0.03610546
44	0xbcf3ff14	-0.029784717
45	0xbd2fe48c	-0.04294257
46	0x3abe9c08	0.001454235
47	0x3caa1b45	0.020764956
48	0x3d5b49dc	0.053537235
49	0xbbd610a6	-0.0065327464
50	0x3c465f68	0.012107708
51	0xbc770a4d	-0.0150781395
52	0x3cdabd68	0.026701644
53	0xbd06be46	-0.032896303
54	0x3ced78a4	0.02898819
55	0x3d40a46c	0.047031805
56	0x3cc1d424	0.023660727
57	0x3c82ef93	0.015983379
58	0x3a31503c	0.000676397
59	0x3d30e820	0.04319012
60	0xbbd213e2	-0.0064110616
61	0xbbd1fc92	-0.0064082826
62	0xbd00f649	-0.031484876
63	0xbcec2f38	-0.02883111
64	0x3c838e66	0.016059112
65	0xbd8cfaf4	-0.06883803
66	0xbba9f23b	-0.005186347
67	0x3bd0160a	0.0063502835
68	0x3c772992	0.015085595
69	0xbccaf8df	-0.024776874
70	0x3cc77a5b	0.024350336
71	0x3d0fc787	0.035102393
72	0x3c870197	0.01648025
73	0x3d329705	0.043601055
74	0x3ccf61e6	0.025315236
75	0x3d3a9528	0.045552403
76	0x3d144eda	0.03620801
77	0x3cf27d39	0.029600726
78	0x3d324cf7	0.04353043
79	0xbcc94366	-0.02456827
80	0x3d576473	0.05258603
81	0x3c301350	0.010746792
82	0xbcd950cb	-0.026527783
83	0xbd4be082	-0.049774654
84	0xbd08ab50	-0.0333665
85	0xbc6f6b60	-0.014613003
86	0x3d2190eb	0.039444845
87	0xbd3dffcb	-0.04638652
88	0x3be2dfcd	0.006923652
89	0x3d025cc4	0.03182675
90	0xbd0f7726	-0.03502574
91	0x3c1c3a62	0.009535404
92	0x3d0f6609	0.035009418
93	0xbbbbca7e	-0.005730926
94	0x3ce9547b	0.028482666
95	0xbbe46ef7	-0.006971236
96	0xbc983c45	-0.018583426
97	0xbc4d0611	-0.012513653
98	0xbc91e07e	-0.017807242
99	0xbd28338c	-0.041064784
100	0xbc8237d9	-0.01589577
101	0x3ca6d1fa	0.020363797
102	0x3c57bd1e	0.013167648
103	0x3cc85a44	0.024457105
104	0x3d830b74	0.06398669
105	0x3d47e22c	0.04879968
106	0xbca89ae7	-0.020581676
107	0xbbbfb176	-0.0058500124
108	0x3c03f7c3	0.0080546765
109	0xbb5ba4c7	-0.0033514963
110	0x3d562d18	0.0522891
111	0xbd151c48	-0.036403924
112	0xbc7bf463	-0.015378091
113	0x3ccd4a03	0.025059706
114	0xbc9d6bfb	-0.019216528
115	0xbc9b93f7	-0.018991454
116	0x3cc76fe8	0.024345353
117	0xbcf02ef8	-0.029319271
118	0x3c8496e4	0.016185232
119	0x3bbc33fd	0.005743502
120	0x3ca4b1d8	0.020104334
121	0x3cab072f	0.020877449
122	0x3ca4e8e1	0.020130577
123	0xbd775c39	-0.060390685
124	0x3d3d62ab	0.046236675
125	0x3d40074e	0.046881966
126	0x39cb80e9	0.00038815223
127	0xbca334a2	-0.019922558
128	0x3aa12dc4	0.0012296964
129	0x3d2fe873	0.04294629
130	0xbb5bae9a	-0.0033520819
131	0x3cd863ea	0.02641483
132	0x3c9ad9e1	0.01890272
133	0x3cd1b60e	0.025599506
134	0x3cd5f756	0.026118916
135	0xbc04c72f	-0.00810413
136	0x3d4bb96c	0.04973738
137	0xbd286104	-0.041108146
138	0x3c230aa1	0.009951265
139	0xbcdf07e8	-0.02722545
140	0xbd3fea7e	-0.04685449
141	0x3a5e4596	0.0008478997
142	0x3cee4546	0.029085767
143	0x3d84efcc	0.0649105
144	0x3d3adfc6	0.045623563
145	0x3c9b2583	0.018938785
146	0xbcfdd0d2	-0.030983362
147	0xbb95f33e	-0.004576116
148	0x3d808a2a	0.06276353
149	0xbcc7c168	-0.024384215
150	0xbbbee452	-0.0058255577
151	0x3c03594f	0.008016898
152	0xbb31b0a1	-0.0027113336
153	0x3cdf0435	0.027223686
154	0x3bbc25a7	0.005741793
155	0x3ba199f1	0.0049316813
156	0xbc6233ef	-0.013806327
157	0xbd3f641f	-0.046726342
158	0xbca3a606	-0.019976627
159	0xbce4a9da	-0.027913023
160	0xbcbce5b6	-0.023058753
161	0xbca5abef	-0.020223586
162	0x3bef9e41	0.0073125665
163	0x3d034cd6	0.0320557
164	0x3d4034f8	0.046925515
165	0x3cf2c067	0.02963276
166	0x3cf8253f	0.030291198
167	0x3d4f8d24	0.05067171
168	0x3c6d227d	0.014473555
169	0x3b6e8b5c	0.0036398983
170	0x3d05ea84	0.032694355
171	0x3c89079d	0.016727263
172	0xbd065e57	-0.032804813
173	0xbd119c99	-0.035549734
174	0xbc012d86	-0.007884389
175	0x3c235968	0.009970047
176	0xbd06de91	-0.0329271
177	0x380690fb	3.2083113e-05
178	0x3bdec9fb	0.0067989803
179	0xbccb3f67	-0.024810506
180	0x3b6bd0ab	0.003598253
181	0x3d347c91	0.04406411
182	0x3d63d525	0.055623192
183	0x3d27c03a	0.040954806
184	0x3d5a4c21	0.05329526
185	0x3d20cb31	0.03925628
186	0x3d04c568	0.032414824
187	0x3d295157	0.041337337
188	0x3b0fda85	0.0021950316
189	0xbd016196	-0.031587206
190	0xbd0d70cb	-0.034531396
191	0x3d86b243	0.065769695
192	0x3d39de34	0.045377925
193	0xbcf2bb29	-0.02963026
194	0x3d0074ec	0.031361505
195	0x3ca33b4e	0.01992574
196	0xbb9c0b3f	-0.004762083
197	0x3d0530cd	0.032517243
198	0xb98bf737	-0.00026696335
199	0x3c4db33f	0.012554943
200	0x3d0f13bf	0.03493094
201	0x3c4e7082	0.012600066
202	0x3d4e0929	0.050301705
203	0x3d29344d	0.041309644
204	0xbc824227	-0.015900685
205	0x3d14bf13	0.036315035
206	0xbc9030aa	-0.01760133
207	0xbc6d0f2e	-0.014468951
208	0xbd1ef4e4	-0.038807765
209	0xbd223e19	-0.039610002
210	0x3d742809	0.059608493
211	0x3d8860f4	0.06659117
212	0xbc649232	-0.013950871
213	0x3b4c5fed	0.0031185106
214	0x3d3dafe2	0.046310313
215	0x3bc13d78	0.00589722
216	0x3d04018a	0.03222803
217	0x3ade31b7	0.0016952072
218	0xbcae88f0	-0.021305531
219	0x3d2ec337	0.04266664
220	0x3d605d73	0.05477662
221	0x3d3bdb06	0.045863174
222	0x3c8cabbc	0.017171733
223	0xbd0b7a1e	-0.034052007
224	0x3cea449e	0.028597172
225	0xbbae9f2a	-0.0053290324
226	0x3da7d1c7	0.08194309
227	0x3d272a4d	0.040811826
228	0xbcf5520d	-0.029946351
229	0x3d1bd1f3	0.03804202
230	0xbd107263	-0.035265338
231	0x3cb7c4a1	0.022432627
232	0x3c89e785	0.01683403
233	0x3d015b10	0.031580985
234	0xbcd0d9d4	-0.025494494
235	0xbc89eb78	-0.016835913
236	0x3cd142c6	0.025544535
237	0x3d1f59f3	0.03890414
238	0x3bbd9f6e	0.0057868278
239	0x3cfb8b6d	0.030706132
240	0x3a4d3592	0.0007828112
241	0x3c46495d	0.012102452
242	0x3b77c890	0.0037808754
243	0x3cd89d31	0.026442142
244	0x3be04c5b	0.00684504
245	0x3c81a96c	0.015827857
246	0xbc1555da	-0.009114707
247	0xbd06314c	-0.032761857
248	0x3ae8ee90	0.0017771292
249	0x3ab63b42	0.0013903158
250	0x3d4eace7	0.05045786
251	0xbd0656fb	-0.032797795
252	0xbd04d551	-0.032429997
253	0x3ce72358	0.028215095
254	0x3ce53716	0.027980369
255	0x3d3ddf97	0.04635581

mu.weight f4 [2, 300]
0	0x3d7cf957	0.061761227
1	0x3e04d9ea	0.12973753
2	0x3db533c7	0.08847766
3	0xbdb41feb	-0.0879515
4	0xbd3c2761	-0.045935992
5	0x3857e9c9	5.1477724e-05
6	0xbd8abedd	-0.067746855
7	0xbd68ba83	-0.056818496
8	0xbe2c2f64	-0.16814953
9	0xbd802104	-0.06256297
10	0xbd10032a	-0.035159267
11	0xbd817829	-0.06321747
12	0xbd938597	-0.072032146
13	0xbd37c031	-0.044861022
14	0x3d458808	0.048225433
15	0xbcaa16d6	-0.020762842
16	0xbdaec31a	-0.085333064
17	0x3db41f59	0.087950416
18	0xbd779a1b	-0.0604497
19	0xbda17f16	-0.07885568
20	0xbdbf178f	-0.09330665
21	0xbde87b64	-0.1135166
22	0xbd8a9158	-0.06766003
23	0xbd2123cb	-0.039340775
24	0x3d8d14f3	0.06888761
25	0x3e04aa2f	0.12955545
26	0xbdc481cd	-0.0959507
27	0xbd8f08f4	-0.069841295
28	0xbba1501e	-0.004922881
29	0xbded712e	-0.11593853
30	0x3c806c01	0.0156765
31	0xbd81aee1	-0.06332184
32	0x3cd972bc	0.026543967
33	0x3da1df30	0.07903898
34	0x3ca8e977	0.020619137
35	0xbd715d2b	-0.058926743
36	0xbd86d554	-0.06583658
37	0xbdebe5dd	-0.11518452
38	0xbd9669d5	-0.073444046
39	0xbd1fc306	-0.03900435
40	0xbc906287	-0.017625106
41	0x3d70c358	0.058780044
42	0x3bc1a7e3	0.0059099062
43	0xbe39a990	-0.18131089
44	0x3d99f5cc	0.07517585
45	0xbd9a4368	-0.07532388
46	0x3e3a9b41	0.18223287
47	0x3e038509	0.12843718
48	0xbd2cf97f	-0.042230126
49	0xbe09148a	-0.13386741
50	0x3d0069ef	0.031351026
51	0xbd9070d9	-0.07052774
52	0x3d8ef22b	0.069797836
53	0xbc17cf40	-0.009265721
54	0x3a33f820	0.00068652816
55	0xbd64829b	-0.055788618
56	0xbc88fbb2	-0.01672158
57	0xbdb22419	-0.08698291
58	0x3dacde01	0.084407814
59	0x3d861bba	0.06548257
60	0xbe2de16e	-0.16980526
61	0xbb20166f	-0.0024427434
62	0x3dbc8db8	0.09206718
63	0x3e2883b2	0.16456488
64	0xba97e5b1	-0.0011588839
65	0x3d97ba14	0.074085385
66	0x3d8b52fc	0.068029374
67	0x3be549d2	0.0069973255
68	0x3d9b1ebd	0.07574222
69	0x3d4bcce9	0.049755964
70	0x3dbf0a22	0.093281046
71	0x3d75c4e6	0.06000223
72	0xbe1fefbd	-0.15618797
73	0xbc7c1e07	-0.015388018
74	0x3d9d0e2a	0.07668717
75	0x3d8d6822	0.069046274
76	0xbbe23558	-0.0069033317
77	0xba989858	-0.0011642082
78	0xbcc9f772	-0.024654124
79	0x3dfdb3a8	0.12387782
80	0x3bd4f4da	0.006498915
81	0x3d7f3435	0.062305648
82	0x3b26301b	0.0025358263
83	0xbe46b948	-0.19406617
84	0x3e05ddf1	0.13072945
85	0xbc990d79	-0.018683182
86	0xbd27ba6d	-0.040949274
87	0x3e0df011	0.1386111
88	0xbdae06a3	-0.084973596
89	0xbdba4cf0	-0.09096706
90	0xbdaae321	-0.08344103
91	0x3d57469d	0.052557576
92	0x3d92ba37	0.07164424
93	0x3dfcd1ef	0.12344729
94	0x3d7fbef0	0.06243795
95	0xbc844ba6	-0.016149353
96	0xbe040d21	-0.12895633
97	0xbd3c6556	-0.04599508
98	0x3cfe47e7	0.031040145
99	0xbd68b23b	-0.0568106
100	0x3dc9b2e6	0.09848575
101	0xbd88d44f	-0.0668112
102	0x3cb1a2b4	0.021684028
103	0x3dded41a	0.10880299
104	0xbd607cf0	-0.05480665
105	0x3d896a3f	0.06709718
106	0x3a8a92f2	0.0010572358
107	0xbcfdd090	-0.03098324
108	0x3db6e92c	0.08931193
109	0x3c05e8ad	0.00817315
110	0x3d1eb5a1	0.038747434
111	0x3db3253d	0.08747337
112	0xbe63bac5	-0.22239216
113	0x3db1c2cf	0.08679735
114	0xbd140639	-0.036138747
115	0xbcf11e60	-0.02943343
116	0xbdd5d0a6	-0.10440187
117	0x3da31106	0.07962231
118	0x3e062924	0.13101631
119	0xbd924c9f	-0.071435206
120	0xbd900343	-0.07031872
121	0x3d8d8945	0.06910948
122	0xbd08194e	-0.033227257
123	0x3e2489a2	0.16068128
124	0xbcc1ce56	-0.023657959
125	0xbd603a83	-0.0547433
126	0x3dae63b8	0.085151136
127	0x3e1ad0a3	0.15118651
128	0xbda903a7	-0.0825265
129	0xbd4e572f	-0.050376114
130	0x3d4c8c4b	0.04993848
131	0x3db2f392	0.087378636
132	0x3d4f4266	0.05060043
133	0x3dba2aee	0.090902194
134	0x3e72d4a2	0.23713925
135	0xbda1c6dd	-0.07899258
136	0xbe54173c	-0.20711988
137	0xbca36715	-0.019946614
138	0xbda6eca8	-0.08150607
139	0xbca524ba	-0.020159114
140	0x3da97a7b	0.082753144
141	0xbd6af725	-0.0573646
142	0x3de4a220	0.111637354
143	0x3d91481c	0.07093832
144	0x3d2906fd	0.04126643
145	0xbc8f6458	-0.017503902
146	0xbd8b9808	-0.06816107
147	0xbcc6ed0f	-0.02428296
148	0x3d1618ee	0.03664487
149	0xbe52fdd4	-0.2060464
150	0xbc9f7964	-0.019467063
151	0x3d73c9fe	0.059518807
152	0x3c8db113	0.01729635
153	0x3d8991fd	0.06717298
154	0xbce618b8	-0.028087959
155	0xbd98afa1	-0.074553736
156	0x3e02e54e	0.12782785
157	0x3cd60125	0.026123593
158	0xbd94fbac	-0.07274565
159	0x3d5e09cf	0.054208573
160	0x3d8ace01	0.067775734
161	0x3d5c3571	0.053761903
162	0x3bbe7dce	0.005813337
163	0x3dc836ff	0.09776115
164	0xbd5f155a	-0.05446372
165	0x3cc12408	0.023576751
166	0xbe34202a	-0.17590395
167	0xbe241f20	-0.16027498
168	0x3d977bff	0.07396697
169	0xbd9ee49a	-0.07758446
170	0xbd81ebce	-0.06343804
171	0x3dce36cd	0.10069046
172	0xbe0df9be	-0.138648
173	0x3e116316	0.14197955
174	0xbc403cdd	-0.011733261
175	0xbd641525	-0.055684227
176	0xbdd20ab1	-0.102559455
177	0xbd0382cd	-0.032107163
178	0x3d3eac28	0.0465509
179	0x3dd1f946	0.10252623
180	0x3d8ebee2	0.06970002
181	0x3b69821a	0.0035630525
182	0xbcfa2f69	-0.030540185
183	0xbcbfb6a5	-0.023402521
184	0x3c60a494	0.0137111135
185	0xbdb79bd5	-0.089652695
186	0x3e895f3d	0.26830474
187	0xbd964171	-0.07336701
188	0x3dcaa023	0.09893825
189	0xbd4b247b	-0.049595337
190	0xbc6524b3	-0.013985801
191	0x3d31b2e2	0.043383487
192	0xbb76d0b0	-0.0037661009
193	0x3d8d7371	0.06906784
194	0xbce64f16	-0.028113883
195	0x3d7f6534	0.062352374
196	0x3cb941a7	0.022614313
197	0x3e19c0fa	0.15015021
198	0x3c8940a8	0.016754463
199	0xbdd02f21	-0.10165239
200	0x3da52d95	0.08065335
201	0xbd414450	-0.04718429
202	0xbd91a634	-0.07111779
203	0xbdf389e4	-0.11891535
204	0x3e1f31fb	0.1554641
205	0xbd014661	-0.03156126
206	0x3e2fd3d7	0.17170654
207	0xbdd9e7ff	-0.10639953
208	0x3e3add69	0.18248524
209	0x3d750844	0.059822336
210	0x3d923f44	0.07140973
211	0xbc7f0087	-0.015564091
212	0x3dd0737d	0.10178278
213	0x3db46a3a	0.088093236
214	0x3d98315e	0.07431291
215	0xba9251e5	-0.0011163322
216	0xbd39b69a	-0.045340158
217	0xbdb2bb34	-0.087271124
218	0xbe5970cd	-0.21234436
219	0xbd8ae28e	-0.06781493
220	0x3d081eaa	0.03323237
221	0xbcdb0eaa	-0.02674039
222	0xbda5fbc3	-0.0810466
223	0xbc89c3e6	-0.016817044
224	0x3e299395	0.16560204
225	0xbcf78e90	-0.030219346
226	0xbb3837f2	-0.0028109518
227	0x3da9590f	0.0826894
228	0x3d8edf2c	0.069761604
229	0x3d8e2d18	0.06942195
230	0xbc18c1aa	-0.009323517
231	0x3dfd9f8c	0.12383947
232	0xbd12db78	-0.035853833
233	0xbda3cfa8	-0.07998592
234	0xbda41617	-0.08012026
235	0x3df57848	0.119858325
236	0x3cb85e67	0.022505952
237	0x3d8b94a0	0.06815457
238	0x3d4d28ce	0.050087743
239	0x3e01eac2	0.12687209
240	0xbc3f0928	-0.011659898
241	0x3d3c8346	0.04602363
242	0xbd72dc42	-0.059292085
243	0xbdc237a2	-0.09483267
244	0x3d61ca9e	0.05512487
245	0x3de2ddb8	0.11077446
246	0xbd83990d	-0.064256765
247	0x3e2f08ea	0.17093244
248	0x3c6d3b14	0.014479417
249	0x3cdc393d	0.026882762
250	0x3e27ef32	0.1639984
251	0x3d8fcc6b	0.070214115
252	0x3d74519c	0.05964814
253	0xbd84ac49	-0.06478173
254	0x3e04f55c	0.12984222
255	0x3d5b09f3	0.053476285

mu.bias f4 [2]
0	0xbd3f7d3e	-0.0467503
1	0xbcd3f3ca	-0.025873084
